models/model.tflite (tflite, 8144 bytes, 8 tensors)

arith.constant5 f4 [2, 1, 1, 1]
000000 62 60 b3 bf a0 66 54 bf
       -1.4013789 -0.82969093

arith.constant6 f4 [2]
000000 00 00 00 00 00 00 00 00
       0.0 0.0

arith.constant7 f4 [1, 1, 3, 1]
000000 7a 4a 13 bf 4f 4d c3 3d e3 94 dd bf
       -0.5753552 0.0953623 -1.7311062

arith.constant9 f4 [3, 4]
000000 77 86 47 bf 9f dd 4b 3f d8 20 dd 3d 76 5b 13 bf
       -0.7793955 0.7963504 0.1079728 -0.57561433
000010 76 85 71 bf 4f 22 86 be c0 54 8f 3f 40 79 53 bf
       -0.9434427 -0.2619805 1.1197739 -0.8260689
000020 92 e5 36 bf c6 28 d4 3d 44 50 85 3f 00 e3 41 bf
       -0.71444046 0.103593394 1.041512 -0.75737

arith.constant10 f4 [4, 128]
000000 2b 59 11 be 8c cb 5c 3d d7 f3 38 3d c1 db 2e bd
       -0.14194171 0.053905055 0.04515442 -0.042690042
000010 2b 3c b2 3d c8 2d eb bd 9f cf f5 3b 97 1d d2 3c
       0.087028824 -0.114833415 0.007501557 0.025648875
000020 47 ba 0b 3e 5b 20 6e be 92 c5 1f be a5 e1 02 3e
       0.13645278 -0.2325453 -0.15602711 0.12781389
000030 4c e0 34 3e ed 49 61 be ca 27 04 be 5d 23 d0 3d
       0.17663687 -0.22000857 -0.12905803 0.10162995
000040 c9 d3 5f bc 12 73 fe bc 92 12 2b be 35 b0 3b 3e
       -0.013661333 -0.03106073 -0.16706303 0.18328936
000050 a8 31 27 3e 19 92 28 be ea 9e f8 bd aa d0 61 3b
       0.16327536 -0.16461982 -0.121396855 0.003445665
000060 33 24 ac 3d 2a d8 16 3e 12 94 99 bb 1b c1 18 be
       0.08405342 0.14730898 -0.004686841 -0.14917414
000070 00 0e c5 3d b0 c9 9a be 08 b6 b8 3d da 69 d3 bc
       0.09621811 -0.30232 0.09019095 -0.02580731
000080 6d 87 fd 3d c7 e8 af 3d e3 5c ed bc 53 a8 62 3d
       0.12379346 0.08589321 -0.028974956 0.055336308
000090 f2 ba ab 3d db e3 13 be 88 fc 1e be 56 18 14 3d
       0.08385266 -0.14442389 -0.1552602 0.03615602
0000a0 e6 e9 21 be 49 95 40 3e cb 8f a2 3c 73 e0 de 3c
       -0.15811881 0.18806948 0.019843956 0.027206635
0000b0 ee b7 47 3e ae 7d 93 3d 65 ea 2a 3e bd 41 29 be
       0.19503757 0.07201706 0.16690977 -0.16528983
0000c0 06 b3 28 be 7d 08 1e 3d 8a b8 ae bc e0 eb 50 3d
       -0.16474542 0.038582314 -0.02132823 0.051006198
0000d0 64 0f e2 3d e0 75 bf bd af c5 85 3a 03 c4 94 bc
       0.11038092 -0.09348655 0.0010206009 -0.018159872
0000e0 08 79 04 3e 2c b0 1a be f8 d7 fa 3d 56 1e 8c be
       0.12936795 -0.15106267 0.12248224 -0.27366894
0000f0 67 4f 05 3d ab 22 a4 bd be 67 07 3e 8f 1a 86 be
       0.032546427 -0.08014425 0.13223168 -0.26192138
000100 90 17 28 bd ed 14 8d bd 8c 44 80 3e 6e 91 10 be
       -0.041038096 -0.06888757 0.25052297 -0.14117977
000110 7e 13 6b bd e1 3c 4c bd a4 b8 0e 3d 18 ee 38 bc
       -0.057391636 -0.049862746 0.034844056 -0.011287235
000120 ee 2c 3e bd 5d 26 92 bd b2 1d 61 3e ce 5c 0d bd
       -0.046429567 -0.071362235 0.21983984 -0.034512334
000130 13 5c 29 3d a5 4e 59 bd 20 fb 12 be a6 ba 5b be
       0.041347574 -0.053053517 -0.14353609 -0.2145792
000140 a8 af 59 3d 9e c7 92 bd 63 0b ea 3d f4 c5 68 ba
       0.053146034 -0.0716698 0.11427953 -0.0008879595
000150 62 e1 16 3e 39 ed eb 3d 25 50 c1 3c 7e 1b 88 3d
       0.14734414 0.11519856 0.023597786 0.06645869
000160 88 1e 51 bd 81 38 5d bb e0 11 e3 3d 23 4e 83 3d
       -0.051054507 -0.0033755603 0.11087394 0.06411388
000170 4f ca f2 bd c4 db 8f bd 63 61 3e 3d 57 fe 8c be
       -0.118549936 -0.07024339 0.046479594 -0.27537796
000180 8e 58 1b 3b c9 07 77 be 59 23 2f bb fb 1c 0b be
       0.0023703906 -0.24124064 -0.002672395 -0.13585274
000190 98 83 f0 ba 66 78 88 3d fa 8a f7 3d fa c0 45 be
       -0.0018349765 0.06663589 0.120870546 -0.19311896
0001a0 5e 79 fe bd 65 0d 38 3e c4 ca 00 be 2a c8 93 3e
       -0.12425493 0.1797386 -0.12577349 0.2886365
0001b0 59 50 24 3d 13 4e 46 bd 37 53 8e bc 26 a4 c7 3d
       0.040115688 -0.0484143 -0.017373664 0.09748106
0001c0 18 87 1b be d0 84 a8 be 65 f8 6c 3c 3c 60 b0 be
       -0.15188253 -0.32913828 0.014463519 -0.3444842
0001d0 ff 6c d2 3d 6a 5b ff bd 45 cc 40 3e a8 68 79 3d
       0.102746956 -0.12468608 0.18827923 0.060890824
0001e0 a2 c5 a4 3e 66 50 b5 3e cc d2 61 be cb ed 62 bd
       0.32182032 0.35412902 -0.22053069 -0.05540256
0001f0 c9 ea 28 bf 9d 89 33 bf 8d 69 37 be 42 1a 2e bd
       -0.65983254 -0.70131856 -0.17911358 -0.04250551
000200 6b 11 e1 bd 67 0b 96 3e e1 38 70 bb 86 c9 1c 3e
       -0.1098965 0.29305574 -0.0036654996 0.1531125
000210 e8 9d 0c be e8 a5 82 3d 62 cb 2b 3d 4b 96 e7 3d
       -0.13732111 0.063793 0.041942008 0.11307963
000220 fe 98 02 be f8 a2 24 3e c3 93 37 bc 57 a4 8b bd
       -0.12753674 0.16077793 -0.011204663 -0.06818455
000230 ff db 36 be 5b 13 38 3e 93 f6 8c bd 52 0b dd bc
       -0.1785736 0.17976134 -0.06882968 -0.026982937
000240 ae 0f 06 bd b4 00 41 3d 0d 7a 20 3e 18 6e 2b 3c
       -0.032729797 0.04711981 0.15671559 0.01046326
000250 f9 54 73 3d 47 57 af 3d 5b e1 16 be 90 4e f3 bd
       0.059407208 0.08561569 -0.14734404 -0.11880219
000260 95 66 55 3e ce 0a 9d bd 38 e2 93 3b a3 99 44 3c
       0.20839913 -0.076680765 0.0045130514 0.0119995205
000270 ad f4 11 bc dd 4f e4 3d d2 e0 81 3d aa 5d 46 bb
       -0.008908433 0.11148045 0.06341709 -0.003026823
000280 72 b9 e7 bd 6f d1 13 3e f6 cd 78 be 94 9e 2a 3e
       -0.11314668 0.14435361 -0.24297318 0.16662055
000290 45 bc bb bd 7c 48 17 bb f0 6c 91 3b e6 47 39 3e
       -0.09166769 -0.0023083976 0.004438035 0.18093833
0002a0 5d d5 71 bb fc 44 c9 bd 3e 89 17 be 8b 52 1f 3e
       -0.0036900856 -0.09827611 -0.14798447 0.15558831
0002b0 97 0f 41 bd 7a f9 b3 bc d8 10 b9 3d 91 22 81 3d
       -0.04713401 -0.021969546 0.09036416 0.06305421
0002c0 b9 d1 f7 bd 6b ac c0 3d 8c fb 69 3d 7d d5 10 bc
       -0.12100548 0.09407886 0.05712466 -0.008839962
0002d0 38 d5 3b be 03 39 15 3e de 8d 43 be ba 97 92 3d
       -0.18343055 0.1457253 -0.19097087 0.07157846
0002e0 fc 14 15 3e 4d 8c 0c 3d a1 ce 22 be ec 93 f5 3d
       0.14558786 0.03431349 -0.15899135 0.119911045
0002f0 fd 6b 3e bd 30 87 a8 3d 94 c1 0c be 24 6e 64 3e
       -0.046489704 0.0822891 -0.13745719 0.2230764
000300 07 c2 3b be 3d c8 b4 3d 50 d8 1d 3e db d4 d3 3d
       -0.18335734 0.08827255 0.15414548 0.10343333
000310 08 db bd bd 9c e2 90 bd 77 4b 11 be 1e b3 fe bc
       -0.092702925 -0.07074472 -0.14188944 -0.03109127
000320 a8 09 7b 3d 3e 5e 03 be df c4 fd 3d 6c f9 e3 3d
       0.061288506 -0.1282892 0.12391066 0.11131558
000330 19 09 94 3d 34 b4 18 be e8 5f 3f be 2a 55 9f 3a
       0.07228298 -0.14912492 -0.18688929 0.0012156118
000340 04 0b 04 3e 7f 14 21 3e 57 cc de bd c1 6b cc bc
       0.12894827 0.15730475 -0.108788185 -0.024953725
000350 80 8b 19 3e 01 14 a8 3c 7f e5 b5 3d c4 11 d2 3d
       0.14994621 0.020517351 0.088816635 0.10257295
000360 c3 36 f4 bd 8c 07 1e 3d f3 d7 29 be 52 a8 7f 3d
       -0.119245075 0.038581416 -0.16586284 0.062416382
000370 20 3d f2 3d 5a 13 4f be c8 a7 3c be 88 f5 e7 3d
       0.11828065 -0.20222226 -0.18423378 0.11326128
000380 b5 51 55 3d 66 e6 31 be 79 aa 04 3c fb b5 24 be
       0.052079875 -0.17373046 0.0080972845 -0.16085045
000390 19 76 15 3c 40 4f f8 3c de 39 24 be ac 5c 45 bd
       0.009122395 0.030311227 -0.160377 -0.048184082
0003a0 43 6b 49 be 07 28 c7 bc b5 38 cb bd 33 93 87 bc
       -0.19669823 -0.024311079 -0.099229254 -0.016549682
0003b0 10 fe 1d 3c 50 6a 7f bd 3a 2a aa bd c1 3c 93 be
       0.009643093 -0.062357247 -0.08308835 -0.2875729
0003c0 46 19 9e be a5 e0 7a be e7 92 93 bd 37 a9 00 bd
       -0.30878657 -0.24499758 -0.07205754 -0.031411376
0003d0 d8 de 1f bd f5 6b da bd f0 59 9e 3d 7f b4 05 bc
       -0.03903088 -0.106651224 0.07731998 -0.008160709
0003e0 e4 5b 1b 3e 1f 99 be 3d f4 5e 8d 3d 5d 1d 00 be
       0.15171772 0.09306549 0.069028765 -0.12511201
0003f0 e5 59 6d bd dd 25 8a 3e 9a ba de bc 87 73 5d 3e
       -0.05794706 0.26982012 -0.027188588 0.21626101

functional_3_1/dense_1_1/Add/ReadVariableOp f4 [4]
000000 2c bc 11 3e 82 4a cf bd 0a ab d2 bd 82 96 18 3e
       0.14231938 -0.10121633 -0.10286529 0.14901164

functional_3_1/dense_2_1/Add/ReadVariableOp f4 [3]
000000 27 1d 2e be a7 aa a1 be d7 10 24 be
       -0.17003308 -0.3157551 -0.16022049

functional_3_1/separable_conv1d_1/Reshape f4 [1, 1, 2]
000000 c2 df e3 3d e9 33 76 be
       0.11126663 -0.2404324
