models/model.tflite (tflite, 8132 bytes, 8 tensors)

arith.constant5 f4 [2, 1, 1, 1]
-0.30698505 -1.6231416
00000000: 252d 9dbe 1bc3 cfbf

arith.constant6 f4 [2]
0.0 0.0
00000000: 0000 0000 0000 0000

arith.constant7 f4 [1, 1, 3, 1]
0.60380477 -0.92233926 -0.22047666
00000000: f392 1a3f 6d1e 6cbf a2c4 61be

arith.constant9 f4 [3, 4]
-0.49809107 0.70200527 -0.11600966 -0.8027949 0.023296928 0.8280455 -0.64001536 -1.1384442
-0.8861037 0.75382143 -0.74806505 0.07643538
00000000: cb05 ffbe 9eb6 333f 7996 edbd f783 4dbf
00000010: 33d9 be3c cafa 533f 0cd8 23bf 8ab8 91bf
00000020: b1d7 62bf 71fa 403f 3181 3fbf 278a 9c3d

arith.constant10 f4 [4, 128]
-0.04719998 -0.10457906 0.19311231 0.11870853 0.09459138 -0.063999854 0.1558674 -0.092478104
0.023221487 0.06697051 -0.028874155 0.031366024 0.17458898 -0.17043704 0.057796523 0.04441839
0.17104912 -0.08152275 0.05182118 -0.14018409 -0.07868449 0.12860455 -0.01816909 -0.080042526
0.12845677 0.11865877 0.2339201 -0.26416922 0.096489735 0.06263307 0.21025993 -0.13779539
-0.109601036 0.22776328 0.27789712 0.08177037 -0.09857531 0.05221651 0.28848246 -0.10508026
0.054910515 0.10998124 0.27392358 -0.08522723 0.06627546 0.0033490448 0.053827222 -0.0749376
0.18213251 0.0378024 0.1371011 -0.10314622 -0.108364984 0.12154322 -0.1107119 -0.011408572
0.044092942 0.04268311 0.02734417 -0.20834668 0.2184403 0.11145622 -0.03208154 -0.2411654
-0.20341356 0.008520374 0.17038707 0.1178096 0.25728056 -0.09380821 0.055809144 0.103384696
0.13666598 0.10650893 -0.046620578 -0.0050288644 -0.017243959 -0.071763344 0.22426775 0.057200372
0.28230998 -0.1791558 -0.008651229 -0.05845611 0.24444793 -0.009079025 0.014219358 0.030887049
-0.059447475 0.09817163 0.23014502 0.11243056 0.062439658 -0.0029249068 0.20980272 0.022882953
-0.1358795 -0.11365367 -0.06366739 0.20629929 0.30903563 0.18784907 0.07708433 0.103678964
0.2535579 0.2443913 0.2680373 -0.033516977 -0.0029172415 0.30362663 0.28323728 0.13119708
0.096482076 0.26948717 0.17907555 0.15514074 0.17057398 0.013544933 0.21471696 -0.18932882
0.103910014 -0.03395529 -0.12795483 -0.20729057 0.014052052 -0.44355205 -0.31776762 -0.73275286
-0.06289437 0.2504805 -0.25604206 0.085015796 0.047742657 -0.12807311 0.02508979 0.08651641
0.20599253 0.25794515 0.09261883 0.09057612 -0.024112225 0.018957978 -0.21074434 0.19131029
-0.20173997 0.08763288 -0.24602787 0.17114107 -0.061655324 0.2007901 -0.03207807 0.07458859
-0.19786544 0.124285735 -0.21381624 -0.0407724 -0.19504353 0.27020478 -0.1752307 0.08422689
0.062192418 0.033419855 -0.03456491 -0.060736887 -0.25211212 0.107055604 0.008905691 -0.028083751
-0.15587488 0.109343365 -0.25821325 -0.11848938 -0.09842376 0.059217434 0.10378178 0.043872446
0.090359256 0.11333134 -0.1850937 0.084069595 -0.14724611 0.030288653 -0.047813307 0.120360784
-0.20002942 0.08432865 -0.23217073 -0.14935057 0.13390511 0.15494896 -0.19214632 0.061741773
0.022551492 -0.021039333 -0.15736839 0.18041068 -0.12681884 0.15316197 0.16048934 -0.049312342
-0.1814345 0.022663254 -0.013684851 0.11611168 -0.124299854 -0.010912074 -0.015057029 -0.05361997
-0.088696085 0.12770754 -0.2657191 -0.008456288 -0.09421195 0.057619903 -0.07639187 0.09493814
-0.102612264 0.1878802 0.05962471 0.15416579 -0.050670184 0.22289345 0.20183918 0.061258383
0.15461364 0.0057993424 0.07555116 0.12308282 -0.212405 0.16590549 0.10347793 0.11812276
0.036887914 0.058004055 -0.19889031 0.07635847 0.008136309 -0.043093134 -0.12550297 0.01846391
-0.1410155 0.21389964 -0.18195678 0.0056478963 -0.058421507 -0.15226117 -0.049913738 -0.12679681
-0.06616069 -0.016657235 0.28363585 0.0409996 0.2599606 0.717863 0.6079321 1.2780098
00000000: c454 41bd 8c2d d6bd 3cbf 453e 751d f33d
00000010: 20b9 c13d 5b12 83bd b49b 1f3e 2965 bdbd
00000020: fd3a be3c d627 893d 7e89 ecbc a979 003d
00000030: 74c7 323e 0c87 2ebe 0cbc 6c3d 0ff0 353d
00000040: 8027 2f3e 66f5 a6bd 7242 543d 6b8c 0fbe
00000050: 5525 a1bd e9b0 033e 58d7 94bc 56ed a3bd
00000060: 2c8a 033e 5f03 f33d c088 6f3e 3041 87be
00000070: 699c c53d c445 803d 614e 573e 3c1a 0dbe
00000080: 8276 e0bd c73a 693e 8848 8e3e 3977 a73d
00000090: dae1 c9bd fbe0 553d f9b3 933e 5234 d7bd
000000a0: d9e9 603d d83d e13d b63f 8c3e 9d8b aebd
000000b0: 6ebb 873d a67b 5b3b ef79 5c3d e278 99bd
000000c0: f280 3a3e b0d6 1a3d 3b64 0c3e 533e d3bd
000000d0: 76ee ddbd a7eb f83d ecbc e2bd 05eb 3abc
000000e0: cd9a 343d 7cd4 2e3d e100 e03c d558 55be
000000f0: d0ae 5f3e 2943 e43d ef67 03bd 10f4 76be
00000100: a54b 50be 0a99 0b3c f379 2e3e 2946 f13d
00000110: 47ba 833e 851e c0bd 2198 643d 5bbb d33d
00000120: 2bf2 0b3e 5b21 da3d 38f5 3ebd 2cc9 a4bb
00000130: 3443 8dbc a9f8 92bd 72a6 653e f04a 6a3d
00000140: ef8a 903e 9e74 37be e2bd 0dbc ad6f 6fbd
00000150: 8f50 7a3e 31c0 14bc 4ff8 683c d606 fd3c
00000160: 327f 73bd 350e c93d 23ab 6b3e fe41 e63d
00000170: bac0 7f3d cbaf 3fbb 86d6 563e 0875 bb3c
00000180: ff23 0bbe 41c3 e8bd 0c64 82bd 1f40 533e
00000190: eb39 9e3e 825b 403e 64de 9d3d a355 d43d
000001a0: 57d2 813e b741 7a3e 2f3c 893e 1949 09bd
000001b0: 312f 3fbb f374 9b3e 7a04 913e 8758 063e
000001c0: 6598 c53d 39fa 893e 955f 373e 37dd 1e3e
000001d0: f2aa 2e3e 91eb 5d3c c3de 5b3e 6adf 41be
000001e0: c6ce d43d b414 0bbd 9706 03be fb43 54be
000001f0: 943a 663c 4119 e3be 70b2 a2be b195 3bbf
00000200: c3ce 80bd fb3e 803e f217 83be c31c ae3d
00000210: ce8d 433d 9925 03be 1a89 cd3c 842f b13d
00000220: b5ef 523e 6311 843e f1ae bd3d f97f b93d
00000230: 0087 c5bc c34d 9b3c 5dcd 57be d8e6 433e
00000240: ec94 4ebe de78 b33d bbee 7bbe 9b3f 2f3e
00000250: 4b8a 7cbd ec9b 4d3e 4b64 03bd e7c1 983d
00000260: 3d9d 4abe 8589 fe3d a5f2 5abe f600 27bd
00000270: 7eb9 47be 4858 8a3e ad6f 33be 267f ac3d
00000280: 7abd 7e3d 42e3 083d ef93 0dbd 3ec7 78bd
00000290: d714 81be f83f db3d 2de9 113c e50f e6bc
000002a0: aa9d 1fbe 6aef df3d 8734 84be 8faa f2bd
000002b0: 6592 c9bd fb8d 723d 8b8b d43d 98b3 333d
000002c0: 460e b93d 431a e83d 3489 3dbe ae2c ac3d
000002d0: afc7 16be e91f f83c e3d7 43bd b77f f63d
000002e0: 83d4 4cbe 80b4 ac3d 2abe 6dbe 5bef 18be
000002f0: 6c1e 093e f1aa 1e3e 01c2 44be f1e4 7c3d
00000300: e8bd b83c ae5a acbc 2e25 21be 94bd 383e
00000310: ccdc 01be 7ed6 1c3e 5157 243e bdfb 49bd
00000320: f7c9 39be 4aa8 b93c 6d36 60bc f6cb ed3d
00000330: ec90 febd 8ec8 32bc c2b1 76bc 9da0 5bbd
00000340: 4ba6 b5bd c4c5 023e 550c 88be 3e8c 0abc
00000350: 32f2 c0bd d902 6c3d 5773 9cbd ed6e c23d
00000360: 6126 d2bd ab63 403e 0a39 743d a3dd 1d3e
00000370: 8a8b 4fbd 2e3e 643e eeae 4e3e 12ea 7a3d
00000380: 0a53 1e3e 6908 be3b 91ba 9a3d d812 fc3d
00000390: b280 59be 21e3 293e 3dec d33d 58ea f13d
000003a0: c817 173d a995 6d3d e7a9 4bbe d461 9c3d
000003b0: 274e 053c 6d82 30bd da83 00be a041 973c
000003c0: 5e66 10be 8208 5b3e e152 3abe fd11 b93b
000003d0: 644b 6fbd 5aea 1bbe 5972 4cbd 06d7 01be
000003e0: 417f 87bd c174 88bc b838 913e 32ef 273d
000003f0: 8e19 853e dfc5 373f 70a1 1b3f d395 a33f

functional_1_1/dense_1_2/Add/ReadVariableOp f4 [3]
0.013408696 -0.026311642 -0.10625061
00000000: 26b0 5b3c 838b d7bc eb99 d9bd

functional_1_1/dense_1/Add/ReadVariableOp f4 [4]
0.061285872 -0.05963911 0.10038349 0.08538088
00000000: e506 7b3d 2448 74bd dc95 cd3d 2cdc ae3d

functional_1_1/separable_conv1d_1/Reshape f4 [1, 1, 2]
0.14701732 -0.061101884
00000000: b58b 163e f845 7abd
